…
max pooling, dropout (for regularization), and fully-connected layers.
We use ReLU activation here but you are free to try other functions.

.. code:: ipython3

    classifier = HTRU1Classifier(input_dim, activation='relu', padding='same', dropout=0.25, num_classes=num_classes)

This is what our classification model looks like:

.. code:: ipython3

    classifier.model.summary()


.. parsed-literal::

    _________________________________________________________________
    Layer (type)                 Output Shape              Param #   
    =================================================================
    conv2d_1 (Conv2D)            (None, 32, 32, 32)        896       
    _________________________________________________________________
    activation_1 (Activation)    (None, 32, 32, 32)        0         
    _________________________________________________________________
    conv2d_2 (Conv2D)            (None, 30, 30, 32)        9248      
    _________________________________________________________________
    activation_2 (Activation)    (None, 30, 30, 32)        0         
    _________________________________________________________________
    max_pooling2d_1 (MaxPooling2 (None, 15, 15, 32)        0         
    _________________________________________________________________
    dropout_1 (Dropout)          (None, 15, 15, 32)        0         
    _________________________________________________________________
    conv2d_3 (Conv2D)            (None, 15, 15, 64)        18496     
    _________________________________________________________________
    activation_3 (Activation)    (None, 15, 15, 64)        0         
    _________________________________________________________________
    conv2d_4 (Conv2D)            (None, 13, 13, 64)        36928     
    _________________________________________________________________
    activation_4 (Activation)    (None, 13, 13, 64)        0         
    _________________________________________________________________
    max_pooling2d_2 (MaxPooling2 (None, 6, 6, 64)          0         
    _________________________________________________________________
    dropout_2 (Dropout)          (None, 6, 6, 64)          0         
    _________________________________________________________________
    flatten_1 (Flatten)          (None, 2304)              0         
    _________________________________________________________________
    dense_1 (Dense)              (None, 512)               1180160   
    _________________________________________________________________
    activation_5 (Activation)    (None, 512)               0         
    _________________________________________________________________
    dropout_3 (Dropout)          (None, 512)               0         
    _________________________________________________________________
    dense_2 (Dense)              (None, 2)                 1026      
    _________________________________________________________________
    activation_6 (Activation)    (None, 2)                 0         
    =================================================================
    Total params: 1,246,754
    Trainable params: 1,246,754
    Non-trainable params: 0
    _________________________________________________________________


Here, we use Adam optimizer which has often been obersved to outperform
RMSprop.

.. code:: ipython3

    adam = Adam(lr=0.001, beta_1=0.6)
    classifier.compile(adam, loss='categorical_crossentropy')
…
